…
('double_soft_f1_loss', <function double_soft_f1_loss at 0x7f182e05dd30>)
('bound_f1_loss', <function bound_f1_loss at 0x7f182e05de50>)



===== Model:

 SiameseNetwork(
  (components): ModuleList(
    (0): GBFeatures(
      (conv_layers): ModuleList(
        (0): GCLayer(
          (conv): TAGConv(38, 64, K=3)
          (norm): BatchNorm(64)
        )
        (1): GCLayer(
          (conv): TAGConv(64, 64, K=3)
          (norm): BatchNorm(64)
        )
        (2): GCLayer(
          (conv): TAGConv(64, 64, K=3)
          (norm): BatchNorm(64)
        )
      )
      (pool): GlobalAttentionSelect(gate_nn=Sequential(
        (0): Linear(in_features=64, out_features=32, bias=True)
        (1): ReLU()
        (2): Linear(in_features=32, out_features=32, bias=True)
        (3): ReLU()
        (4): Linear(in_features=32, out_features=32, bias=True)
        (5): ReLU()
        (6): Linear(in_features=32, out_features=32, bias=True)
        (7): ReLU()
        (8): Linear(in_features=32, out_features=32, bias=True)
        (9): ReLU()
        (10): Linear(in_features=32, out_features=1, bias=True)
        (11): ReLU()
      ), nn=None)
    )
  )
  (final_out): Sequential(
    (0): Linear(in_features=64, out_features=64, bias=True)
    (1): ReLU()
    (2): Linear(in_features=64, out_features=64, bias=True)
    (3): ReLU()
    (4): Linear(in_features=64, out_features=64, bias=True)
    (5): ReLU()
    (6): Linear(in_features=64, out_features=1, bias=True)
  )
)

===== Optimizer:
Adam (
Parameter Group 0
    amsgrad: False
    betas: (0.9, 0.999)
    eps: 1e-08
    lr: 0.001
    weight_decay: 0
)

 ===== Train model. Execute time was:
Minutes: 0.51
Seconds: 30.42

 ===== Test last_model. Execute time was:
Minutes: 0.01
Seconds: 0.34

 ===== Test best_model. Execute time was:
Minutes: 0.01
Seconds: 0.33

 ===== Test best_model_sa. Execute time was:
…
