…
          (norm): BatchNorm(64)
        )
        (4): GCLayer(
          (conv): LEConv(64, 64)
          (norm): BatchNorm(64)
        )
        (5): GCLayer(
          (conv): LEConv(64, 64)
          (norm): BatchNorm(64)
        )
        (6): GCLayer(
          (conv): LEConv(64, 64)
          (norm): BatchNorm(64)
        )
        (7): GCLayer(
          (conv): LEConv(64, 64)
          (norm): BatchNorm(64)
        )
        (8): GCLayer(
          (conv): LEConv(64, 64)
          (norm): BatchNorm(64)
        )
      )
      (pool): GlobalAttentionSelect(gate_nn=Sequential(
        (0): Linear(in_features=64, out_features=32, bias=True)
        (1): ReLU()
        (2): Linear(in_features=32, out_features=32, bias=True)
        (3): ReLU()
        (4): Linear(in_features=32, out_features=32, bias=True)
        (5): ReLU()
        (6): Linear(in_features=32, out_features=32, bias=True)
        (7): ReLU()
        (8): Linear(in_features=32, out_features=32, bias=True)
        (9): ReLU()
        (10): Linear(in_features=32, out_features=1, bias=True)
        (11): ReLU()
      ), nn=None)
    )
  )
  (final_out): Sequential(
    (0): Linear(in_features=64, out_features=64, bias=True)
    (1): ReLU()
    (2): Linear(in_features=64, out_features=64, bias=True)
    (3): ReLU()
    (4): Linear(in_features=64, out_features=64, bias=True)
    (5): ReLU()
    (6): Linear(in_features=64, out_features=1, bias=True)
  )
)

===== Optimizer:
Adam (
Parameter Group 0
    amsgrad: False
    betas: (0.9, 0.999)
    eps: 1e-08
    lr: 0.001
    weight_decay: 0
)

 ===== Train model. Execute time was:
Minutes: 1.96
Seconds: 117.62

 ===== Test last_model. Execute time was:
Minutes: 0.01
Seconds: 0.38

 ===== Test best_model. Execute time was:
Minutes: 0.01
Seconds: 0.30

 ===== Test best_model_sa. Execute time was:
…
